model/model.pth (torch, 280863 bytes, 6 tensors)

linear1.weight f4 [256, 11]
000000 4a af c9 be 59 32 d0 3e ca 50 a1 3e 98 8a b6 be
       -0.39391547 0.40663412 0.3150695 -0.35652614
000010 b2 e3 7f be 06 01 ca 3c 5a 20 f7 3d b1 97 b7 be
       -0.24989203 0.024658691 0.120667174 -0.3585792
000020 4c 6c e8 be e8 2e 5c 3d c4 9d 1f 3e bd 8f 81 be
       -0.45395124 0.05375567 0.15587527 -0.25304976
000030 76 ab 0e 3e 28 63 fe bd 0a d1 55 be b0 ee 2d be
       0.13932595 -0.12421256 -0.20880523 -0.16985583
000040 0c 71 ca bc 90 1b 24 3d 94 38 2f be b5 4f cc 3a
       -0.024712108 0.04006535 -0.17111427 0.0015587719
000050 ed 5b f1 3b a0 52 6a be f0 97 8a 3e ac f6 b4 3e
       0.0073656947 -0.22883081 0.27069044 0.35344446
000060 64 46 90 3e e4 ef a9 be ac a1 d8 3b 6d 30 a7 3d
       0.28178704 -0.33190835 0.0066110697 0.08163533
000070 7f aa ef be b8 93 04 bf 75 c2 f8 bd 90 a8 9c be
       -0.46809766 -0.517879 -0.12146465 -0.30597353
000080 d5 1d 18 3e 34 97 f7 3c a1 f0 8e 3e 1b ff 96 be
       0.1485513 0.030223466 0.2791796 -0.29491505
000090 12 59 cc bd 0b 08 24 bd 6d 87 17 be 17 27 3c be
       -0.09977926 -0.040046733 -0.14797755 -0.18374287
0000a0 9e 0f b7 bd 19 fc 89 bd a0 0b 54 bd d3 99 f9 bc
       -0.089385256 -0.06737537 -0.0517689 -0.030468857
0000b0 65 59 fb bd 29 b9 9d 3e 61 4c 97 3e e0 a2 11 be
       -0.1227291 0.30805328 0.2955046 -0.14222288
0000c0 15 1e 35 be a8 1f 08 be 99 91 39 3e e5 7c 27 be
       -0.17687257 -0.13293326 0.18121947 -0.16356237
0000d0 1d 62 8f bd 5f ef 10 3e ae 6e 78 be 9c 8b 1c 3e
       -0.070011355 0.14153813 -0.24260971 0.15287632
0000e0 a2 53 41 3d c8 80 4c 3e 79 86 28 be 98 91 2b be
       0.0471989 0.19971001 -0.16457547 -0.16754758
0000f0 a9 05 47 be 48 8a db bd bb 61 cf be 20 77 dd bc
       -0.19435753 -0.107197344 -0.4050425 -0.027034342
000100 a8 47 23 be 49 b2 07 be 75 d0 a3 be b9 89 8f 3d
       -0.15945303 -0.13251604 -0.31994978 0.070086904
000110 39 80 f5 3d bf 71 2e bc d4 d7 c3 be e3 98 29 be
       0.11987347 -0.010647236 -0.382506 -0.16562228
000120 b7 27 90 3e 9e a7 e5 be 92 11 eb be 49 d5 03 bf
       0.281553 -0.44854444 -0.45911843 -0.5149732
000130 0f 1a 43 3d f9 9d 50 be 36 06 ec bd af 49 dc 39
       0.047632273 -0.20372762 -0.11524622 0.00042016568
000140 d3 ce 1d be d0 15 8d bd 25 75 8f bd f7 90 2e be
       -0.15410928 -0.06888926 -0.070047654 -0.17047487
000150 ef 34 6a be 59 65 b0 be 70 57 da 3d ed 09 c3 3c
       -0.22871755 -0.34452322 0.10661209 0.023808444
000160 e3 69 04 3e 9b e9 d4 bd a7 c5 e0 be 8a 63 0d bf
       0.12931018 -0.10396119 -0.43900797 -0.5523001
000170 45 06 70 3e 2d d7 88 be e1 b9 78 bd 69 36 0e bf
       0.23439892 -0.26726666 -0.060724143 -0.55551773
000180 41 35 ff 3d 0d 69 8c be 9d 6c ff be 22 c6 19 3e
       0.12461329 -0.27423897 -0.49887553 0.15016988
000190 17 c0 3f 3e bd aa fd bd 0d 15 5e 3c 80 d9 3a 3a
       0.1872562 -0.12386081 0.013554824 0.0007127747
0001a0 7b 72 4e be fc 12 36 bd a8 dd f1 bd 05 7c 20 be
       -0.20160858 -0.0444517 -0.11809856 -0.1567231
0001b0 af 7f 0b be 4e 3c 6f be 77 d3 e9 bd d7 ed cf bd
       -0.13622926 -0.23362848 -0.11417287 -0.10152786
0001c0 fd 42 47 3e 62 d8 82 bd 9d 12 23 3c 4d 6c d0 bd
       0.19459148 -0.06388928 0.009953168 -0.10176907
0001d0 7a 39 7d 3c e6 81 8a be d3 78 e2 bd 7f 65 97 bd
       0.015455598 -0.2705223 -0.11058202 -0.07392406
0001e0 2d f7 99 3d 07 cd a0 bd 4c c3 c0 3e 3e b7 e5 3e
       0.07517848 -0.07851606 0.37649 0.44866365
0001f0 f0 ba 21 3e 30 5e cd bd 29 fe 15 be e3 d5 0c 3d
       0.15793967 -0.100277305 -0.14647736 0.034383666
000200 41 ee 17 bd 1d fe 49 3e c7 bb 4f bd 7a ab f7 3d
       -0.03709245 0.19725843 -0.050716188 0.120932534
000210 3f 50 1f bc 36 d7 cc bd 9a 83 71 3e 23 bd 3d bd
       -0.009723722 -0.10001986 0.23585358 -0.046322953
000220 c8 c1 dc bd 64 1a a0 be 67 b1 c4 bd f6 dc 65 be
       -0.10779148 -0.31270134 -0.09604149 -0.22447571
000230 11 af d7 be 35 37 99 be 9a 06 6f be 33 20 a2 3e
       -0.42125753 -0.29924932 -0.23342362 0.3166519
000240 03 e0 0d 3e 6f 80 51 be bb e5 39 3e fe da 5e 3e
       0.13854985 -0.2045915 0.18154041 0.21763226
000250 0d 52 a7 be 01 f8 8d be 5e 79 ff be dc 67 0f bf
       -0.32679787 -0.27728274 -0.49897283 -0.5601785
000260 43 58 86 3c e6 e7 12 bd 88 3e 95 be 17 0a f4 be
       0.016399508 -0.035865687 -0.2914927 -0.47663948
000270 64 61 0b 3e f6 dd 0d be f2 e7 b6 3d fe a5 5c be
       0.1361137 -0.13854203 0.08930959 -0.21547696
000280 c6 78 45 3d 1a dc 53 3e b8 34 be bc 46 12 f0 bd
       0.04821088 0.20689431 -0.023218498 -0.117222354
000290 0b 5b 78 be fe b7 9f be d9 f3 3c be 37 24 86 3e
       -0.2425348 -0.31195062 -0.18452395 0.26199505
0002a0 ac 0f e5 be c2 24 5d 3e 01 e7 0c 3d 78 e0 14 3d
       -0.4473852 0.21596053 0.03439999 0.036346883
0002b0 54 12 f1 be 73 42 16 be c5 ed 4c 3d d1 a3 a2 3c
       -0.47084296 -0.14673786 0.050031442 0.019853504
0002c0 cf be b6 3e 31 00 c5 be 12 82 63 bd a1 0f 9e 3e
       0.3569245 -0.3847671 -0.055543967 0.308713
0002d0 73 a3 f1 bd 8d c2 13 be 09 a9 03 be 0c a5 8e 3c
       -0.117987536 -0.14429684 -0.1285745 0.017412685
0002e0 e5 c0 88 3d 51 6a c7 be e8 ce aa be 6d 7d a5 bd
       0.06677417 -0.389483 -0.33360982 -0.08080564
0002f0 bd 2a a4 3e f4 b0 16 3e d0 c6 cb 3d b3 3d aa bd
       0.32063857 0.1471594 0.0995003 -0.083125494
000300 58 a5 f1 be 21 d2 b5 be f0 36 dd be 45 13 6a be
       -0.4719646 -0.35511878 -0.43205976 -0.22858913
000310 7e 52 92 3d 4d c5 0a bd 9f 0d 7f 3d 04 70 b8 3d
       0.071446404 -0.033879567 0.06226885 0.0900574
000320 67 6b 52 3e 11 31 09 3e 1d 88 49 be ed 0e 57 be
       0.20548783 0.13397624 -0.1968083 -0.21001787
000330 41 a0 86 bd 4c 84 ae be a8 67 d8 be 21 ff 9a bd
       -0.06573535 -0.3408531 -0.42266583 -0.07568193
000340 11 0f 1e bc 24 d7 88 be d9 7e 9b 3e f7 f2 a2 3c
       -0.009647147 -0.2672664 0.30370215 0.019891245
000350 9f 76 86 bd 53 66 ec bc 49 3c 3f be ed da c0 bd
       -0.06565594 -0.028857386 -0.1867534 -0.09416757
000360 63 e0 5c bd c7 ad 1d be 2c 61 6a bd bd 9a 0d be
       -0.05392493 -0.15398322 -0.057221577 -0.13828559
000370 d7 cb 96 bd b3 33 2d be 73 a4 68 be 0d c7 92 be
       -0.07363098 -0.16914253 -0.22718982 -0.2866749
000380 e7 23 56 be 16 ad b7 3e e8 04 37 be ab fa 07 bf
       -0.20912133 0.35874242 -0.17872965 -0.53116864
000390 5b 6e f7 be 39 3e 91 3e 5b 6c 9c be 45 d4 09 3d
       -0.48326382 0.28367785 -0.3055142 0.0336497
0003a0 6d 3e 3f bd e1 77 a1 3e 98 8e 8e bc f4 bb 92 bd
       -0.046690393 0.31536773 -0.017401978 -0.071647555
0003b0 04 91 31 be eb 0d 59 be 1e ef 6d be 88 a3 65 bc
       -0.17340475 -0.21196716 -0.23235747 -0.01401604
0003c0 5d 13 b4 be 5a e0 5e be 0c f7 6c 3d 92 95 90 3e
       -0.35171023 -0.21765271 0.05785279 0.28239113
0003d0 11 29 88 be a3 0e 36 be 38 fd 34 3d 1a 0c 28 bd
       -0.2659383 -0.17779021 0.0441868 -0.041027166
0003e0 eb 24 08 be 54 c8 5f be 6d ec c0 be e8 59 36 be
       -0.13295333 -0.21853763 -0.3768038 -0.17807734
0003f0 4a 2d e1 be 44 11 f0 3e 5d 5d bc 3d 59 69 4a 3e
       -0.43979865 0.46888173 0.09197495 0.1976675

linear1.bias f4 [256]
000000 0e cb 0e 3e 4d e3 a5 be 18 4f c8 be 67 00 9e be
       0.13944647 -0.3239998 -0.39122844 -0.30859682
000010 13 99 e9 be 41 6b 8e be de 6c 61 3e 8a 46 a2 bd
       -0.456246 -0.27816203 0.22014186 -0.079236105
000020 a4 c6 86 3e 92 f5 82 be 69 f6 99 be 98 ca 95 be
       0.26323426 -0.2557798 -0.3007081 -0.2925613
000030 ee 25 68 bd 57 8c 84 3e 1e c5 47 be 47 49 bc 3e
       -0.056676798 0.2588832 -0.19508788 0.36774656
000040 5b f3 a1 3b 9d 3c b0 3d 74 13 f1 be 81 eb 62 be
       0.0049423403 0.08605311 -0.47085154 -0.2216015
000050 ae 03 e6 bc 89 9b af be 4c 01 91 bd 89 83 08 be
       -0.028077926 -0.3429835 -0.070803255 -0.13331427
000060 5e b7 ce 3d 57 0a 77 3d f2 68 f0 be 07 03 fc 3c
       0.10093568 0.060312595 -0.46955067 0.030763162
000070 9b a1 25 be ef 0f 79 be 2b 4a af be 75 3b 34 3d
       -0.16174929 -0.24322484 -0.34236273 0.044002015
000080 df e2 09 3e b4 e1 a9 be 6d c2 b4 bc 27 c0 b2 be
       0.1346545 -0.3318001 -0.022065366 -0.34912226
000090 79 c0 ec bd ed fb 91 be b3 8e d0 3c 2d 9c ae bd
       -0.11560149 -0.28512517 0.02545867 -0.08525882
0000a0 ca 0b 44 be 69 e4 ef 3d 66 f1 88 bd 49 2e 57 be
       -0.19145122 0.11713488 -0.06686668 -0.2101375
0000b0 e2 84 b3 3e 5e 0a 35 3e fe 2c 26 be 60 12 d9 bd
       0.3506232 0.17679736 -0.162281 -0.10599208
0000c0 18 49 45 3e a6 a0 c3 bd b4 47 96 3d ea 87 3d be
       0.19266164 -0.09552126 0.07337895 -0.18508878
0000d0 9f 68 0c 3e 3d ce f3 3d 1b 89 8d bc e0 4f 28 bd
       0.13711785 0.11904571 -0.017277291 -0.0410918
0000e0 eb 4d c8 be 12 6a 52 be a7 05 e9 be 43 45 6d 3d
       -0.39121947 -0.20548275 -0.45512125 0.05792738
0000f0 a3 a4 1d 3d 07 e3 02 bc d2 3d 47 be b3 c8 f6 3d
       0.038487088 -0.007988698 -0.19457176 0.12049999
000100 03 23 58 be 3d 03 ee bd 2c 62 0c bd 43 ee 28 3d
       -0.21107106 -0.116217114 -0.03427331 0.04124285
000110 73 60 4c be f9 ab f9 bd 3c ea 9b be b8 0a c2 be
       -0.19958667 -0.12191004 -0.30452144 -0.37898803
000120 8f 46 a0 bd e2 7b 6a be e4 4b b3 bc 49 7d 3d be
       -0.07825958 -0.2289882 -0.021886773 -0.18504824
000130 11 2a 32 3f 9b f1 9f be a6 4f 33 3f 25 a7 b0 3e
       0.6959544 -0.31239018 0.7004341 0.3450252
000140 41 e6 8d be fe c2 9b be 72 4d 9a 3e c0 44 b2 be
       -0.27714732 -0.30422205 0.3013721 -0.34818077
000150 36 59 e3 be e7 7a 98 be 72 79 bf bd f4 c3 82 bd
       -0.44404 -0.29781267 -0.09349336 -0.06385031
000160 7b d7 52 be fa b3 07 be ed 7a 5c be 81 49 69 be
       -0.20590012 -0.1325225 -0.21531267 -0.22781946
000170 23 26 ca 3e 61 89 af 3e a4 ea cf be 3a 61 94 be
       0.3948222 0.342845 -0.40608704 -0.28980428
000180 fe 5c 80 bd 0e 79 13 be 02 1a d3 be df 06 b9 bd
       -0.06267737 -0.14401647 -0.4123078 -0.09034514
000190 10 c5 4a be 62 f7 ca bd 65 54 81 be 56 a5 c4 bd
       -0.19801736 -0.09910466 -0.252597 -0.09601848
0001a0 92 6f 84 be 4c f1 8f be d2 57 a9 be 6f a0 8e be
       -0.2586637 -0.28113782 -0.33074814 -0.27856776
0001b0 ed 41 47 be 68 4d 99 be 20 68 82 3d 10 4d d0 bb
       -0.19458742 -0.2994187 0.063675165 -0.006356843
0001c0 4f e3 cc 3c 09 f5 c5 bd 4c 3c b8 be 75 97 64 be
       0.025010733 -0.09665877 -0.35983503 -0.22323401
0001d0 1a 45 c1 be 3a 0f 6f be 24 5b 2a 3e fa 5f 38 be
       -0.37748033 -0.23345652 0.1663633 -0.18005362
0001e0 26 71 6e be f5 0d 6f bd 7e 2f 3d 3e b3 35 a3 be
       -0.2328535 -0.05836292 0.18475148 -0.31876907
0001f0 73 99 b0 be 9b e5 e9 3d fd 89 af 3d e6 db b8 be
       -0.34492072 0.11420747 0.08571241 -0.3610527
000200 2c a1 5d bd 2d ba ec bd 9c 88 d2 3c bf 96 5f be
       -0.054108784 -0.11558948 0.025699906 -0.21834849
000210 0c 89 01 be 5d a8 5b be 99 f9 46 3e 59 83 64 be
       -0.12649935 -0.21450944 0.19431151 -0.2231573
000220 21 d7 17 bd 15 70 bf bd 7b 3b ca be de e9 18 be
       -0.037070397 -0.0934755 -0.39498505 -0.14932963
000230 f1 bf 8c 3e 42 e6 60 be 27 37 6a be 66 14 b1 be
       0.2749019 -0.21962836 -0.22872601 -0.34585875
000240 da a9 53 be 36 bd a0 be 76 ce 23 be eb bd 40 be
       -0.20670262 -0.31394356 -0.15996727 -0.18822448
000250 93 4e 84 3d b2 b9 16 3e d7 80 0c be 9b b8 83 bb
       0.06460299 0.14719275 -0.13721023 -0.0040198094
000260 78 be 64 be 63 b7 76 be 0b 0e b5 be 6f 9d b6 be
       -0.22338283 -0.24093394 -0.35362276 -0.35666987
000270 3d 2e 5b be d8 55 23 be 6f 47 a1 be fb 38 33 3e
       -0.21404357 -0.15950716 -0.31499812 0.17502205
000280 bd c4 63 be 25 2a 54 bd 6c 2e 78 3e 40 8e fe be
       -0.22243018 -0.051798005 0.24236459 -0.49717903
000290 b4 d3 82 be f5 e6 a4 bd e6 6c 87 be cf 3a 32 bd
       -0.25552142 -0.08051864 -0.2645027 -0.043513115
0002a0 b0 a7 37 be 4e 88 96 3d 5e 17 db be e6 ac b7 bd
       -0.17935061 0.07350217 -0.42791265 -0.08968525
0002b0 55 2f 56 be 35 a6 78 be 6c 7b 2f be e1 54 13 3d
       -0.20916493 -0.24282153 -0.17136925 0.03596962
0002c0 90 d6 8d be 71 38 40 3e de ec ae bd d5 85 8d be
       -0.2770276 0.1877153 -0.085412726 -0.27641168
0002d0 c4 a3 7e be d7 b7 b5 3c 64 ad 59 be 6f 62 a5 bc
       -0.24867159 0.022182388 -0.2125755 -0.020188538
0002e0 3d c7 34 3e 49 4e 96 3e 5c ac aa be 8e b1 01 3e
       0.17654128 0.29356602 -0.33334625 0.12665388
0002f0 4a 67 81 be 8e 11 a1 be 4c bd bc be 05 29 dc bd
       -0.25274116 -0.31458706 -0.36863172 -0.10750011
000300 e1 48 f5 bc 55 67 b5 be a0 0f 52 3e ed fb f4 bd
       -0.029941978 -0.354304 0.20513773 -0.119621135
000310 db 06 4f be 83 b8 93 be 14 bf ca be 0f 2d a3 be
       -0.20217459 -0.2885171 -0.39598906 -0.31870314
000320 1e 6c e4 be 40 f0 24 3e 52 31 e1 bb a1 1e d9 bd
       -0.44613737 0.16107273 -0.0068723345 -0.10601545
000330 3f 61 81 bd 07 31 a5 be 1b 6d 6a bc 11 55 88 be
       -0.06317376 -0.32263967 -0.014308239 -0.266274
000340 9c 0d cb 3d 66 db ef 3d 22 c2 08 bd a2 92 5b 3b
       0.09914705 0.11711769 -0.033388264 0.0033504148
000350 54 b8 e4 be aa df 10 be 3e 05 ca be 30 66 18 be
       -0.4467188 -0.14147821 -0.39457124 -0.14882731
000360 4c 07 2d be c7 7b 86 be a1 6a 64 be cb d6 c0 be
       -0.16897315 -0.2626631 -0.223063 -0.37663874
000370 1b 18 29 3e bb cf 61 bd 1d fc 0e 3d ae c6 ae be
       0.16513102 -0.055129748 0.034908403 -0.34135956
000380 b3 b6 7f be 4c af 9e 3e 5a e9 32 be 2d 43 b4 be
       -0.24972038 0.30993116 -0.17471829 -0.352075
000390 21 25 94 be db 44 9f bd f2 5f 7f be f9 65 f6 3c
       -0.28934577 -0.07776805 -0.24938944 0.030077921
0003a0 ef 2f cb bd cb 90 75 be 55 45 61 3e 4f 5d 20 3e
       -0.09921252 -0.23981015 0.21999104 0.15660594
0003b0 6d 9b a6 bd 4d 67 8e be 5e 22 03 bc db f2 dd be
       -0.08135114 -0.27813187 -0.008003799 -0.43349347
0003c0 89 1e 93 be d8 1b cd be 1a 68 32 3c 62 18 05 be
       -0.28734234 -0.40060306 0.010889078 -0.12997583
0003d0 fa 64 1c 3d 84 d0 23 be 74 71 ef bd c5 86 7a be
       0.038182236 -0.15997511 -0.11691561 -0.24465473
0003e0 4d 92 ac be d4 7b d8 3d 8b 3d b2 3d 0c 28 39 be
       -0.3370537 0.10570493 0.08703145 -0.18081683
0003f0 c8 8d c4 bb ec a5 41 be fd 3e 5b be d9 62 d2 bd
       -0.005998347 -0.1891095 -0.21410747 -0.1027276

linear2.weight f4 [256, 256]
000000 9e ad ae bb e5 8e 99 bb 5e 60 aa bd fd bf 08 3d
       -0.0053307554 -0.004686224 -0.08319162 0.03338622
000010 3a df d0 bc 6b 23 e2 bc 30 c0 f7 3c df 40 16 bd
       -0.025497068 -0.02760478 0.03024301 -0.03668296
000020 bf 33 6a bd eb bb 98 bd 24 92 03 3d 7d ed 86 bc
       -0.057178255 -0.074577175 0.032121792 -0.016470665
000030 e2 78 51 bb d4 e8 82 3c 46 9b a6 bc 68 95 55 3d
       -0.003196292 0.015980162 -0.020337712 0.052144438
000040 48 b3 ad bd 5f 15 9d 3c 58 1f f1 bc 72 bd 10 bc
       -0.08481461 0.01917523 -0.029433891 -0.00883423
000050 ae 01 82 3d 83 27 84 bd 2b e1 b1 bc cb 27 7b bd
       0.063479766 -0.06452849 -0.021713814 -0.061317246
000060 0b 51 b5 ba 7f c2 b5 3c 0a 31 ee 3c 93 7d 97 3d
       -0.0013833357 0.02218747 0.029076118 0.07396998
000070 e5 19 e7 bc 91 13 ea bc 4e 10 27 bd 23 ec 15 3d
       -0.02821059 -0.028573783 -0.040787034 0.03660215
000080 f4 61 5d bd 28 af 3c bd 74 15 90 bd 81 38 40 bd
       -0.054048494 -0.04606548 -0.07035342 -0.046928886
000090 cf 96 5c 3d 9c 68 2d 3d 12 1d 27 bd d2 a9 bb bd
       0.05385476 0.04233609 -0.040799208 -0.0916325
0000a0 71 fe 72 bd e9 d1 90 bd f6 ba b7 bc c9 a5 a9 bd
       -0.059324685 -0.07071287 -0.022428017 -0.08283574
0000b0 f4 9f 5b bc 4b 09 11 bd ff 92 50 bd a0 fb 6e bc
       -0.013404835 -0.035409253 -0.050921436 -0.014586359
0000c0 15 5f 84 bd e1 49 1b bc 2f 8e 71 bb 97 95 5e 3d
       -0.06463448 -0.009478063 -0.003685843 0.05434188
0000d0 70 da 07 bb 4f 3c d7 bd d9 40 54 3c 20 09 8a bd
       -0.0020729564 -0.1050955 0.012954914 -0.06740022
0000e0 aa c3 a2 bd 82 c6 07 bd 16 b3 71 3c 4b 60 c0 3b
       -0.07947476 -0.033148296 0.01475217 0.005870854
0000f0 c1 86 a8 bd 43 2d 65 bd 20 4a 3d bd 16 06 3c 3d
       -0.08228827 -0.055951368 -0.04621327 0.04590424
000100 9a b1 49 bd e0 62 1c 3d e1 bd 78 bd 44 51 88 bd
       -0.04924164 0.038180232 -0.060727958 -0.06656125
000110 d2 14 32 bd 59 52 89 3b 91 b4 33 bd 42 7d 16 3d
       -0.043476887 0.004190725 -0.043873373 0.03674055
000120 94 eb 40 ba e0 e2 bc bd 9f 4b 73 bd 33 1f 01 bd
       -0.00073593226 -0.092229605 -0.05939829 -0.031523895
000130 84 17 96 3c 00 49 07 3b 6a 00 04 bc a8 31 ad bd
       0.01832176 0.0020642877 -0.008056739 -0.08456737
000140 cc 2b 98 3b 9b 51 b9 3c 2f c0 d4 38 f2 0c ee 3b
       0.004643893 0.02262192 0.00010144745 0.007264727
000150 bb ab 28 3a 62 cc 7d bb f2 00 8c bc 68 cc 19 bd
       0.0006434281 -0.0038726558 -0.017090295 -0.037548453
000160 ab 9f 56 3c de 68 b5 3c d7 8a c7 bc f2 79 19 3d
       0.013099591 0.022144731 -0.024358196 0.03746981
000170 2e d0 ac bd 81 9e c7 3c a1 22 ff bc 10 7b 3c 3d
       -0.084381446 0.024367573 -0.031144442 0.0460158
000180 5a 02 e0 bc 18 66 6b bc 13 ff 57 3d b9 c6 9c 3a
       -0.027344871 -0.014367603 0.052733492 0.001196108
000190 55 d8 9a bc c0 c0 31 bd 4e 52 6c 3d a2 74 ac 3b
       -0.018901983 -0.04339671 0.05769568 0.005262927
0001a0 90 38 89 bd 21 9c 88 bd 30 18 d1 bc 6a 58 81 bd
       -0.067002416 -0.06670404 -0.025524229 -0.06315692
0001b0 9c 31 47 bd 10 a2 ce 3c 54 f2 2b bd ae 80 4f bd
       -0.048631296 0.025223762 -0.04197915 -0.050659828
0001c0 4f a5 8e bd fd 6c 86 3c 27 e0 bf 3c db 3a 5b 3d
       -0.06965124 0.016409392 0.023422314 0.053522926
0001d0 6f 9a 15 3d 08 9b a2 bc 86 13 63 bb 62 a4 24 3d
       0.036524232 -0.019849315 -0.0034649088 0.04019583
0001e0 80 78 96 bb 8b b7 68 3c 4d 72 4f bd ee 34 96 bc
       -0.0045920014 0.014203916 -0.050646115 -0.018335786
0001f0 58 a4 88 bd 95 11 cc 3a 8b 53 78 bd a8 a7 d5 3c
       -0.06671971 0.0015569205 -0.060626548 0.026080921
000200 d6 46 93 bd fd 22 34 bd c6 d0 12 3d 48 14 ff bc
       -0.07191245 -0.04397868 0.035843633 -0.0311376
000210 bf b8 52 3d 7c 4b c8 bc 29 83 cd bb 4c a3 d0 3c
       0.05144572 -0.024450056 -0.006271739 0.025468491
000220 0d e4 18 bb 20 76 2f bb fc 50 0b 3d 2b 2b d3 bc
       -0.0023329288 -0.002677329 0.03401278 -0.02577742
000230 f9 5d d5 3b 33 52 79 bd d2 74 04 bd ae 3d 88 bd
       0.0065114466 -0.060869407 -0.03233797 -0.066523895
000240 cc 16 8c 3c 3e 55 29 bd bb 58 2d bc 50 80 fd bc
       0.017100714 -0.04134106 -0.010580237 -0.030944973
000250 b9 62 7d bd 8e e7 0b bc 57 57 bd bc 9c a8 50 bc
       -0.061861727 -0.008539094 -0.023112936 -0.012735512
000260 cb 1a 84 bc 49 df 42 3b 62 86 31 bd 00 ca 39 ba
       -0.016126057 0.002973514 -0.043341048 -0.000708729
000270 17 92 06 bd 22 86 24 3d 60 82 1f 3d 9b 4a b4 bd
       -0.032854166 0.04016698 0.038942695 -0.08803292
000280 94 cd 2a bd 28 a7 c0 bd 3d 13 44 bd d5 f1 26 3c
       -0.04169996 -0.094068825 -0.04786991 0.010189493
000290 91 f8 07 bd 45 77 1d bd 8f 88 95 3b dd 73 c6 bd
       -0.033196036 -0.038443822 0.004563398 -0.09690068
0002a0 2d 79 1a 3c 13 91 ae bd 77 fc 23 bc c2 b6 8b bd
       0.009428305 -0.085237645 -0.010008923 -0.06821968
0002b0 f0 11 72 3d ca 7e 0f 3d ff d7 27 bd b2 74 9f 3d
       0.059099138 0.035033025 -0.040977474 0.0778593
0002c0 0c 51 19 3d 74 f3 9b 3b 74 e1 3a bd 76 df 33 bd
       0.037430808 0.0047592465 -0.045625165 -0.04391428
0002d0 1c 59 12 3d ca ba af bc b6 7c f4 bd 22 a8 15 bd
       0.035729513 -0.021451373 -0.11937849 -0.036537297
0002e0 d8 c9 4b bd f9 f6 49 bd 28 c4 03 3d 78 c2 16 3b
       -0.04975304 -0.049307797 0.03216949 0.0023004096
0002f0 54 76 fb bc 00 c9 02 bc 95 a3 93 3c cd 57 9e bd
       -0.030696072 -0.007982492 0.018022338 -0.077315904
000300 a4 8b de bc 53 08 e0 bd 18 2d 04 bd 6e a5 59 3b
       -0.027166195 -0.10939088 -0.032269567 0.0033210176
000310 21 84 29 3d ee fb 0b bd 11 a2 bb 3c e9 d8 59 bc
       0.041385774 -0.034175806 0.022904428 -0.013296344
000320 26 e3 02 3b 9b b1 93 bd b8 26 86 bd 7f fd 88 3b
       0.0019971817 -0.0721161 -0.06550354 0.0041806097
000330 f1 cb 94 bd d5 d2 ae bd ed 38 55 bd 90 7c d6 3c
       -0.07265461 -0.08536307 -0.05205624 0.026182443
000340 92 2f 04 bd 66 00 08 3d 88 a7 04 bc 74 4a 46 bd
       -0.03227193 0.033203505 -0.008096583 -0.048410848
000350 dd e9 66 bc a0 f6 fb 3c 8e a5 13 3d f8 06 ba 3d
       -0.014093843 0.030757248 0.036046557 0.090833604
000360 64 a6 c6 bc f2 22 80 3c 15 8c 10 3c e7 59 1e bd
       -0.024249263 0.015641663 0.008822461 -0.038659956
000370 4f 50 98 3b d6 76 0c bd d2 b4 01 3c cd 0a b9 bc
       0.0046482454 -0.03429302 0.007916646 -0.022588158
000380 9a 3a fc 3c 55 f9 39 bc 21 ec 6b bd 96 0f d7 bd
       0.030789662 -0.011350949 -0.057598237 -0.1050102
000390 5b 33 12 bd 30 4c 2f 3d 94 a7 1d bd 42 e9 38 bd
       -0.035693508 0.042797267 -0.038489893 -0.045144327
0003a0 ba 40 f5 bd 35 1f 3c bd 5a fc b4 bb 9b ee 60 3b
       -0.11975236 -0.0459282 -0.0055232467 0.0034321907
0003b0 b1 cc 24 bd c4 e5 14 3c 18 33 67 bd c6 9d 9d 3b
       -0.04023427 0.0090879835 -0.05644521 0.004810068
0003c0 12 3d 2d bd 4f 7d 08 bd 8f c9 ea b9 75 f1 8f 3d
       -0.04229457 -0.03332263 -0.0004478213 0.07028476
0003d0 65 96 1b ba b7 89 90 bd be 4d b3 bc dc 69 bd 3c
       -0.00059351913 -0.07057517 -0.021887656 0.023121767
0003e0 80 a6 1a bc 1b 24 a1 bd 69 4d 01 bd f4 48 27 bc
       -0.009439111 -0.07868215 -0.031567965 -0.0102102645
0003f0 c8 01 0a 3c 08 f3 2f bc 4e 29 16 bc 17 77 36 bd
       0.008423276 -0.0107390955 -0.009165121 -0.044547167

linear2.bias f4 [256]
000000 0c e1 df bc 0a 91 c7 bd d1 0a 7b bb 01 6d 3d bd
       -0.02732899 -0.09744461 -0.0038306008 -0.046246532
000010 63 62 b2 bd 13 db e2 3c 94 76 30 3e ba f0 c3 bd
       -0.08710172 0.027692353 0.17232734 -0.09567399
000020 4d cc 9c 3c ff ec 37 3e ea 39 f6 bc 55 cd 87 bd
       0.019140387 0.179615 -0.030056912 -0.06630961
000030 25 b8 90 bd 31 89 03 be 27 9b 60 bc e4 3e ac 3b
       -0.07066373 -0.12845303 -0.013708866 0.0052565206
000040 c2 66 17 be a3 61 59 bd 7e f2 db bd 3f d4 9f bd
       -0.14785293 -0.05307163 -0.10739611 -0.078041546
000050 b9 f8 ca 3d 2a 4d 44 be 12 91 5d bd 8f 24 5a bd
       0.09910721 -0.19170061 -0.054093428 -0.05325752
000060 08 52 3b 3e a6 ef 80 bd 07 9f 9d bd a3 21 0b be
       0.18293011 -0.06295709 -0.07696348 -0.1358705
000070 09 63 ed bd 40 42 60 3f d7 b2 28 be 3c 4c 41 3d
       -0.11591155 0.8760109 -0.16474472 0.047191843
000080 11 f2 a3 bd 2e a4 a3 3c dc 86 35 be e5 ee 42 3d
       -0.08005155 0.019975748 -0.17727226 0.04759111
000090 07 73 68 bc 31 4a 5b be a2 a3 73 bd bb 0e e3 bc
       -0.014187581 -0.2141502 -0.059482224 -0.027716985
0000a0 c6 62 4f bd 5e c3 95 bc 4a 9c 3b be a2 ff a2 bd
       -0.050631307 -0.018281635 -0.18321338 -0.07958914
0000b0 f1 67 23 3e df a5 34 be cc f7 91 bd a7 7c 48 bd
       0.15957619 -0.176414 -0.07127342 -0.048947003
0000c0 e3 80 37 3e 55 ff d3 bd 34 dd 04 bd 84 fb 8b 3c
       0.1792026 -0.10351435 -0.03243752 0.017087705
0000d0 0a 88 8d bd ac 90 25 3e 7c 14 2b 3e e4 1a 90 bd
       -0.06910713 0.16168469 0.16707033 -0.07036379
0000e0 2a eb b9 3b e8 00 85 bd df ba 39 bd e3 b6 47 be
       0.0056737857 -0.064943135 -0.04534423 -0.1950336
0000f0 e4 09 8a bd c3 8b 90 bd 6c d6 b9 bd c8 bd 51 bd
       -0.06740168 -0.070579074 -0.09074101 -0.05120638
000100 4f 2d ec bd 8c bf d1 3e 5e 0a ef bd 81 52 35 bc
       -0.115320794 0.4096645 -0.11671899 -0.011067034
000110 38 59 14 be d3 4c 0d be 39 4d 09 bd f7 9e 4d bd
       -0.14487159 -0.13798837 -0.03352091 -0.05020043
000120 cb ba 64 bd 97 9c b3 bd 4e 22 c1 bd a1 4f 0c 3c
       -0.055842202 -0.087701015 -0.09430371 0.008563907
000130 f6 75 54 bd 08 70 34 be 5f 1a d9 bc 83 5a 82 3e
       -0.05187031 -0.17620862 -0.026501833 0.2545968
000140 cf 40 8a bd 80 e6 8e bd 4a a8 08 3f 89 d7 a7 bd
       -0.067506425 -0.06977558 0.5338179 -0.08195407
000150 34 a3 02 be af 42 0b 3d 51 77 4a be 71 68 c3 bc
       -0.1275757 0.03399914 -0.19772078 -0.023853512
000160 49 f6 a9 3b 95 2b a0 bd 00 63 09 be e4 05 8e bb
       0.00518683 -0.078208126 -0.13416672 -0.0043341983
000170 9a e5 64 bd cc f5 87 bd 06 78 6b be 84 e4 1f bd
       -0.055883028 -0.06638679 -0.22995004 -0.03903629
000180 ec 93 56 bd f4 a9 ce bd fa fc 58 bd db 41 9b 39
       -0.052387163 -0.1009101 -0.052975632 0.0002961297
000190 c9 93 dd bd 06 81 04 bd f7 23 0c be 3d 5e 5d bd
       -0.108192034 -0.03234961 -0.13685594 -0.05404495
0001a0 7f ef fa bc 0e d0 d0 bd 58 b9 3d bd f2 f6 f4 bd
       -0.030631779 -0.10195933 -0.046319336 -0.119611636
0001b0 69 d9 a3 bd df f0 ab ba f3 52 90 bc 63 3b 57 3c
       -0.08000452 -0.001311805 -0.017617678 0.0131367175
0001c0 0f ba 99 bd e9 2b 14 be 50 86 46 bd 87 13 b4 bd
       -0.07506191 -0.14469875 -0.048467934 -0.08792787
0001d0 27 d1 01 bd 4a 72 15 bd 23 72 bf 3d 30 bd 82 3e
       -0.031693604 -0.036485948 0.09347942 0.25534964
0001e0 db 62 44 be 39 af 9d 3d 71 d0 c0 bd 89 81 3e bc
       -0.19178335 0.07699437 -0.09414757 -0.011627563
0001f0 95 26 46 bd 13 46 8e bd d0 47 10 3c 2f 43 ac 3d
       -0.04837664 -0.06946959 0.008806184 0.08411252
000200 3c a9 c0 bd f5 ff 66 3c e3 b2 22 bd e0 fc c0 ba
       -0.09407279 0.014099111 -0.03972138 -0.00147238
000210 be 8c 9f 3e 8c b1 65 bd 09 aa 59 3e 93 2a 9c bd
       0.31162065 -0.056077525 0.2125627 -0.07625308
000220 25 db a0 bd 11 2a cb bc 58 f2 a5 3c 98 fe f3 bc
       -0.078542985 -0.024800332 0.02025716 -0.029784486
000230 bd b3 91 bc a4 38 66 bd a9 1b df 3a 33 5f 44 3f
       -0.017785901 -0.05620636 0.0017021793 0.7670776
000240 01 9c 15 bd a3 e6 c7 bd dd cc 5c bd 7d a1 3b bd
       -0.03652573 -0.09760787 -0.05390631 -0.045808304
000250 99 6a a8 bb ee d8 b7 bd 55 f1 e0 bd fd 4e b4 bd
       -0.0051396606 -0.08976923 -0.109835304 -0.08804128
000260 b3 8f 8c bd 9e d8 81 be ed 54 27 be 10 81 da bb
       -0.06863346 -0.25360578 -0.1634099 -0.0066682175
000270 83 13 c1 bd ea 9f b3 bd 30 8a ca bd 6b 6d b9 bc
       -0.0942755 -0.087707356 -0.098896384 -0.022635182
000280 eb cf e2 bd 58 b1 9e 3d f6 a6 c8 bd a4 7d 8c bd
       -0.110748135 0.077486694 -0.0979747 -0.068599015
000290 0a 0b b4 bd b8 b5 3e bd f9 27 a6 bd 1b 1e 45 bd
       -0.08791168 -0.04656002 -0.08113093 -0.048124414
0002a0 f7 79 26 bd 1e da 66 bd 59 a6 fc bd 2a e0 0b be
       -0.04064366 -0.056360357 -0.12336416 -0.1365973
0002b0 0f 6d 42 bd d2 7a c6 bd d4 25 cc bd 73 fa 14 bd
       -0.047467288 -0.09691395 -0.09968153 -0.03637166
0002c0 e2 e0 61 bd 59 71 e4 bd 13 68 f3 bd f4 2c 14 bc
       -0.055146106 -0.11154432 -0.11885085 -0.009043921
0002d0 4d 11 f5 bc 3c 19 1f b9 a8 22 48 bc da 24 54 3c
       -0.029915476 -0.00015172822 -0.012215294 0.012948239
0002e0 14 a5 a9 bd f8 96 89 bc 79 f3 bf bd fd 00 5d bc
       -0.08283439 -0.01679562 -0.093726106 -0.013489005
0002f0 c4 4d 4f bc 8c ac 7c bd f5 6d 6c bd 9e f9 ab bd
       -0.012652818 -0.06168799 -0.05772205 -0.0839722
000300 7d 0f e1 bc 05 64 f5 bc d1 c7 d0 bc f1 78 aa 3b
       -0.027473206 -0.02995492 -0.025485905 0.0052024056
000310 6d d8 55 be 96 1a 2d 3c 9c 69 3c bc 70 79 94 bc
       -0.20883341 0.010565421 -0.011499789 -0.018124312
000320 46 ac 24 be dd ca ef bd 2a 44 0a be 16 96 c7 bc
       -0.16081342 -0.11708615 -0.13502565 -0.024363559
000330 b2 fd 3a be 46 1b 13 3e 25 61 65 bd 62 3a 0d bd
       -0.1826084 0.14365873 -0.056000847 -0.034479506
000340 71 36 7c 3e 4b 75 f7 bc 4f eb 25 bc 44 62 3d bd
       0.24630143 -0.030207297 -0.010126903 -0.04623629
000350 72 89 aa bd cf 3e c6 3b d8 06 dd bd 16 3c 98 bd
       -0.08326997 0.006049968 -0.10792321 -0.074333355
000360 95 86 05 be d8 76 ca bd d7 bb 00 bd be 2c b0 bd
       -0.1303962 -0.09885949 -0.031429138 -0.08602284
000370 9e 6c 6b 3c ba 61 96 bd b1 83 94 3d 21 70 b7 3c
       0.014369158 -0.073428586 0.07251681 0.022392334
000380 9e a8 ce bd a8 8b b5 bc 83 3d f3 bd 5a 91 c2 3d
       -0.10090755 -0.02216132 -0.11876967 0.0950038
000390 13 84 0e 3e 82 79 90 bd fd 93 c9 bd dc da ce bd
       0.1391757 -0.07054426 -0.0984268 -0.10100338
0003a0 8d c1 93 bb e6 75 b1 3d a1 75 b4 bd 8c 43 85 bd
       -0.004509157 0.086650655 -0.088114984 -0.06507024
0003b0 dd 78 43 bd c1 04 92 3a ad 97 40 bd dd 96 dc bd
       -0.047722686 0.0011140333 -0.04701965 -0.107709624
0003c0 72 65 3a bc da 89 a7 bc d8 89 a3 bd 51 a0 0f 3f
       -0.0113767255 -0.020451475 -0.07985276 0.56104
0003d0 bb 32 8a bc 70 d1 8d bc cc b9 1a be a7 93 fb bd
       -0.016869893 -0.017311782 -0.15109938 -0.12284022
0003e0 7e b4 19 bd 1b 48 c1 bc ff 26 12 3e 11 52 da 3c
       -0.037525646 -0.023593953 0.14272688 0.02665046
0003f0 07 e6 ac bd ea 2e 9d bd 10 50 cf bd ff a6 a7 bd
       -0.08442312 -0.07674964 -0.101226926 -0.08186149

linear3.weight f4 [3, 256]
000000 67 d6 de bc f0 f5 7c 3d f3 26 5b bc d9 67 99 3c
       -0.027201844 0.06175798 -0.013375985 0.018726276
000010 5f 87 75 bc e2 fe 33 bd df 82 91 3d 66 b4 21 3c
       -0.014985888 -0.043944247 0.0710504 0.0098696705
000020 31 79 4b bb 81 85 a8 3d da 42 83 3c 58 db c5 bc
       -0.0031047578 0.08228589 0.016023088 -0.024152443
000030 33 54 2e 3c c9 44 bd bd 0c 3a 88 3c 78 52 72 bc
       0.010640192 -0.09241635 0.016629241 -0.01479017
000040 cb 50 90 bc eb be d8 3b f7 0d 47 bb fc 80 ec b9
       -0.01761665 0.006614556 -0.0030373314 -0.0004510953
000050 7e 94 19 bc fb e9 f9 bc c0 26 1d bd 2f 27 07 3b
       -0.009373782 -0.030507078 -0.038367033 0.002062272
000060 60 bc 0b bd 35 82 83 bc a9 fe 62 3c 4f 25 57 3d
       -0.034115195 -0.016053298 0.013854661 0.052525815
000070 d5 49 3a 3c 02 aa 31 3e 28 a8 09 bd 07 ab c4 bb
       0.011370142 0.17350009 -0.033607632 -0.0060018334
000080 f7 49 55 3d 68 ac 0a 3d 52 8b 67 bd f4 04 99 3c
       0.05207249 0.033855826 -0.05652935 0.01867912
000090 bd 2d c2 bd 1e c5 ae bc b2 0f d4 3a b2 7e db bd
       -0.0948138 -0.021334227 0.0016178994 -0.107175246
0000a0 40 f8 81 bd 5c e3 48 3c 9a 1a 72 be 4f ca 7b 3c
       -0.06346178 0.012261238 -0.2364296 0.015368058
0000b0 c5 cc 20 be a5 aa 02 3d 7e d5 3e bc c5 0b f0 3c
       -0.15703113 0.03190102 -0.01164758 0.029302487
0000c0 d9 57 0b be e2 ae 1e be e7 85 bb bb 01 f8 a9 3d
       -0.1360773 -0.154964 -0.0057227495 0.08299256
0000d0 2b 13 8d bc f1 ff e6 bd d0 78 85 3e 03 02 8c 3d
       -0.017221054 -0.11279286 0.26068735 0.06836321
0000e0 2a 29 96 3c 53 e3 33 bd 88 12 db bc 55 ae 8e bd
       0.018330175 -0.043917965 -0.026742235 -0.06966845
0000f0 f6 26 89 bd 06 ff e1 bd 5f c1 65 3d df 71 e7 3c
       -0.06696884 -0.1103497 0.056092616 0.02825254
000100 20 45 22 be 82 bf ac 3e e7 ab 18 bd a3 18 21 bd
       -0.15846682 0.3373986 -0.037273314 -0.039330136
000110 e6 85 64 3b 3e d2 38 3c c2 33 61 bb 26 7f 61 bd
       0.0034869849 0.011280594 -0.0034363125 -0.0550529
000120 ac 90 a4 bc 71 60 c3 bc c5 70 e6 3c 8a 32 a8 be
       -0.020088516 -0.023849698 0.028129945 -0.32851058
000130 67 61 6f 3c 94 50 8b bc 01 40 57 bb 4b 1d 97 3e
       0.014610625 -0.017006196 -0.0032844546 0.29514536
000140 1e 59 77 3d f0 cd 42 bc 41 02 ae 3e 1a 67 37 bc
       0.060387723 -0.01188992 0.33986095 -0.011194015
000150 5e 5d 5f bc 13 f9 9c bc a9 e4 e3 bc 25 e3 48 3d
       -0.0136331 -0.019161737 -0.027818995 0.049044747
000160 10 b3 a4 bc d2 f3 87 3d 72 78 f5 3c 40 5d e8 ba
       -0.020104915 0.06638302 0.02996466 -0.0017727986
000170 80 e6 2f bb ef c2 0b bc ba fa ad bc e2 fa 34 3d
       -0.002684027 -0.0085303625 -0.02123772 0.044184573
000180 cd 02 78 bb d5 45 a9 be 2e d7 94 bd 30 03 36 bd
       -0.0037843466 -0.3306109 -0.07267605 -0.044436634
000190 86 d9 19 3c fd 95 83 3c f4 02 20 be ad 05 bd bd
       0.009390241 0.01606273 -0.15626127 -0.09229598
0001a0 88 f3 13 bd ee 92 cc 3c 8c 37 43 bd 11 7f b7 bb
       -0.03612092 0.024972405 -0.047660396 -0.0055998643
0001b0 0f 28 19 bc 9d f2 56 bc 18 61 60 3d ed 19 4d 3c
       -0.00934793 -0.013119367 0.054780096 0.012518388
0001c0 1b d0 6d bc e0 23 aa be c9 30 7f bb d8 1b 4e 3c
       -0.014514948 -0.33230495 -0.003893899 0.012579881
0001d0 34 05 61 3e 97 d4 32 3c 14 63 eb b9 e0 3e 06 be
       0.21974641 0.010914943 -0.00044896512 -0.13109922
0001e0 46 b6 6f be 24 fd bc 3b 60 3e b0 3c e0 42 6a 3b
       -0.23409376 0.0057674814 0.021514118 0.0035745427
0001f0 45 14 ef bc 40 98 00 3c 36 78 18 3d 77 b8 8c 3c
       -0.02918447 0.007848799 0.037224017 0.017177803
000200 2c e3 b0 3b a3 17 4f bb 19 b2 a9 bc 39 02 97 3c
       0.0053981747 -0.0031599782 -0.020714806 0.018433677
000210 39 77 43 3e 3f 77 3b bb 59 ce 3f 3e b4 59 6f 3b
       0.19088449 -0.0028605012 0.18731059 0.0036521973
000220 5c fc b6 3c 79 ba 6f bc 2a ef 40 3d 10 58 26 bc
       0.022337131 -0.014631861 0.047103085 -0.010152832
000230 12 8e 73 bd af 88 31 bd 72 54 4f bb 35 30 0a 3e
       -0.05946166 -0.043343242 -0.0031636027 0.13494952
000240 b9 95 3e bd 0b bf 11 bd 8f f3 83 bc c5 69 1a bd
       -0.046529505 -0.035582583 -0.016107349 -0.037698526
000250 36 1a b2 bb 77 ef e3 bb 47 5f f5 bc 81 05 a5 3c
       -0.0054352535 -0.0069560367 -0.029952658 0.020144226
000260 a6 c6 02 3d 70 83 09 bd 38 6c 3a bf b6 c1 ff bc
       0.031927727 -0.033572614 -0.7282138 -0.031220298
000270 02 24 0d 3c c0 10 80 3b 9c 88 c1 bd 7f 99 ce bb
       0.008614542 0.0039082468 -0.09449884 -0.0063049193
000280 c4 c8 02 bc 1c 6a 11 3c 8a 07 55 3b ba e6 5b 3c
       -0.007982437 0.008875396 0.0032505714 0.013421709
000290 48 6f 53 3b 4a 5e 0f 3d 00 69 02 ba 2c 11 be bc
       0.0032262374 0.03500203 -0.00049747527 -0.023201548
0002a0 5f a2 3b bc d4 8b 4b 3d f9 af db bc 3f 89 ba 3d
       -0.0114522865 0.049693897 -0.026817309 0.09108209
0002b0 4f dd 9b be fa 22 3c bd d8 8f 32 bd cc f7 7e 3c
       -0.30442283 -0.045931794 -0.04359421 0.015562009
0002c0 b7 94 e1 3b ec 49 17 be 94 32 02 be 77 23 21 3d
       0.0068841833 -0.14774293 -0.12714607 0.039340463
0002d0 5a 18 33 bd ff c9 17 bd 04 ec 07 bd e9 30 da ba
       -0.043724395 -0.037057873 -0.033184066 -0.0016646656
0002e0 8e 20 0b 3d 49 bf 2e bc ba 66 8c 3c 21 2b 05 bd
       0.033966593 -0.010665723 0.017138828 -0.032511834
0002f0 38 4d a8 bc fc d1 93 3c fd 74 24 3d 93 77 26 3d
       -0.020544633 0.018044464 0.04015063 0.04064138
000300 0a c3 4c bc cd 04 95 3d 9e 14 92 bb 54 40 d3 bc
       -0.012497673 0.07276306 -0.004458024 -0.02578751
000310 c4 c5 32 bc b6 16 21 3c 87 32 83 bd 45 73 3e bd
       -0.010911409 0.009832075 -0.06406122 -0.04649665
000320 ef e3 44 bd 0d 46 2d 3d 65 ef 1a bd ae d8 7b 3c
       -0.048068937 0.042303134 -0.03782596 0.015371485
000330 69 f2 d8 3c 93 1f 66 bd f3 0c 5a bc 5b 4d 23 3d
       0.026482778 -0.056182455 -0.013308751 0.039868694
000340 1c ee 14 be 07 fa 71 3c 34 51 52 3d 62 10 de 3c
       -0.14543957 0.014769084 0.051346973 0.027107421
000350 a5 49 4f 3d f6 d2 b3 3c 86 50 d6 3c 20 8e 4c 3c
       0.050607342 0.02195118 0.026161443 0.012485057
000360 64 49 84 bd c6 3e 19 be 17 be 89 3b c9 58 2a bd
       -0.06459311 -0.14965352 0.0042035687 -0.04158858
000370 2a 97 98 bc b2 dc b9 bc 74 5f ad bd 64 fa 92 bb
       -0.018626768 -0.022688244 -0.08465472 -0.0044854153
000380 5b a3 08 bd a4 32 0d bb e8 7b 85 bd 96 4a d7 bd
       -0.033358913 -0.0021545077 -0.06517774 -0.10512273
000390 fe 4c bb bd 30 64 a0 ba 2d 7a c7 3c 10 b9 88 3d
       -0.091455445 -0.001223689 0.02435025 0.06675923
0003a0 45 e6 67 3d 54 30 33 ba 7d d3 ce 3c 28 3f 3f 3d
       0.056616087 -0.00068355096 0.02524733 0.04669109
0003b0 2a fa 01 3d 3f b7 50 bc 40 e0 d2 3a 11 1c e7 3b
       0.031732716 -0.012739002 0.001608856 0.0070529063
0003c0 1d 37 00 bb 5d 61 bc bb 1e 79 16 bc a0 5d 03 3f
       -0.00195641 -0.0057489113 -0.00918415 0.51314735
0003d0 c9 5b 03 3d 9d e8 2b 3d eb c9 f9 bc 49 60 cd be
       0.032069955 0.041969884 -0.03049179 -0.40112522
0003e0 a6 b0 13 3c 8c 89 07 bd c5 70 14 3d 88 b6 98 bc
       0.009014284 -0.03309016 0.036240358 -0.018641725
0003f0 a1 c0 54 bc de bf 34 3d 90 ce c4 bc c0 f5 6b bd
       -0.012985379 0.04412829 -0.024024278 -0.057607412

linear3.bias f4 [3]
000000 df f1 90 3e 8f 8d 5f be dd aa 59 bd
       0.28309533 -0.21831344 -0.053141464
